…
acc: 0.97913660/3660 [==============================] - 7s - loss: 0.0743 - acc: 0.9792 - val_loss: 0.0349 - val_acc: 0.9891
Test score: 0.034880497658
Test accuracy: 0.989130434783
____________________________________________________________________________________________________
Layer (type)                     Output Shape          Param #     Connected to                     
====================================================================================================
convolution2d_1 (Convolution2D)  (None, 26, 26, 32)    320         convolution2d_input_1[0][0]      
____________________________________________________________________________________________________
activation_1 (Activation)        (None, 26, 26, 32)    0           convolution2d_1[0][0]            
____________________________________________________________________________________________________
convolution2d_2 (Convolution2D)  (None, 24, 24, 32)    9248        activation_1[0][0]               
____________________________________________________________________________________________________
activation_2 (Activation)        (None, 24, 24, 32)    0           convolution2d_2[0][0]            
____________________________________________________________________________________________________
maxpooling2d_1 (MaxPooling2D)    (None, 12, 12, 32)    0           activation_2[0][0]               
____________________________________________________________________________________________________
dropout_1 (Dropout)              (None, 12, 12, 32)    0           maxpooling2d_1[0][0]             
____________________________________________________________________________________________________
flatten_1 (Flatten)              (None, 4608)          0           dropout_1[0][0]                  
____________________________________________________________________________________________________
dense_1 (Dense)                  (None, 128)           589952      flatten_1[0][0]                  
____________________________________________________________________________________________________
activation_3 (Activation)        (None, 128)           0           dense_1[0][0]                    
____________________________________________________________________________________________________
dropout_2 (Dropout)              (None, 128)           0           activation_3[0][0]               
____________________________________________________________________________________________________
dense_2 (Dense)                  (None, 46)            5934        dropout_2[0][0]                  
____________________________________________________________________________________________________
activation_4 (Activation)        (None, 46)            0           dense_2[0][0]                    
====================================================================================================
Total params: 605,454
Trainable params: 605,454
Non-trainable params: 0
____________________________________________________________________________________________________
None
{'class_name': 'Convolution2D', 'config': {'subsample': (1, 1), 'nb_filter':
…
